ros2_src/bci_interface/config/tcformer_state_dict.pth (torch, 540052 bytes, 121 tensors)

net.conv_block.temporal_convs.0.1.weight f4 [16, 1, 1, 16]
-0.15221761 -0.22275424 0.12295059 -0.17306125 0.1164029 0.1002703 -0.08945706 0.19098333
0.09424878 0.17439482 0.18191399 -0.056685418 0.26317382 0.060360108 -0.019644592 -0.3278436
0.37784415 0.28883085 -0.19852826 0.06991533 -0.17426316 0.09894727 -0.08544593 0.064384595
-0.114624284 0.021226374 0.05701693 0.28292963 0.22195081 -0.11158053 0.26163155 -0.06714256
-0.020681655 0.12649183 0.2445978 0.0013504833 0.13866243 0.22419897 0.3368549 0.21736369
0.20149656 0.13894156 -0.057257984 -0.10545791 0.17593889 0.023667436 -0.03571711 0.011690245
0.19800638 0.11480384 0.16937667 -0.058117397 0.03630916 -0.07948247 0.047594145 -0.26613617
-0.3326648 -0.16927686 0.16100307 0.13094337 -0.1266919 0.032467157 0.10606418 0.3390075
0.20479019 -0.012792479 0.008352946 -0.2432893 0.06675081 -0.13269368 -0.13214804 0.25882357
-0.017693937 0.1908494 0.16277651 -0.06073746 -0.27749354 -0.23308092 0.06492172 0.2482984
0.0473116 -0.05517815 -0.07035146 -0.24322568 -0.0714755 -0.11571225 0.06896124 0.06232458
0.2716253 0.12006666 0.008925004 0.12312227 -0.15832451 0.073821045 -0.18751784 -0.2639481
-0.11604115 -0.19795647 -0.25363544 -0.116788656 0.149892 -0.13013819 -0.12312472 -0.038937736
0.05253244 0.05033721 -0.20752549 -0.07377682 -0.038333774 0.25618953 -0.10307725 0.31995395
-0.42373943 0.033638224 -0.14147842 0.1115179 -0.14244023 0.10890523 0.06409239 0.20800376
-0.12504132 0.011465825 -0.16306362 0.07554102 -0.009766075 -0.22294097 -0.19301055 0.019191671
0.17066923 0.26976708 -0.14209697 0.081615806 0.097112395 0.035224587 -0.16582309 -0.004993835
0.06760938 0.32248184 0.24148059 0.087545104 0.22551753 0.080989055 0.26163962 -0.069032975
-0.34564254 -0.1475738 -0.09392455 0.0213873 -0.123779275 0.1431902 0.24860923 0.06886979
0.05039922 0.093737245 0.22051376 -0.25448358 -0.059966214 -0.256404 0.016049907 0.08828446
-0.2209694 0.26850608 0.14665744 0.31558096 0.22119811 0.27408034 -0.09376459 -0.098546684
0.11329851 0.15460432 -0.12976336 -0.1936109 0.04044209 -0.06781736 -0.05479445 -0.059358124
-0.16496892 -0.008944558 -0.15108442 -0.2688444 -0.081429906 -0.03447973 -0.17949992 -0.07027128
-0.22430228 0.017016133 0.09072082 -0.14979264 -0.21399996 -0.22201826 -0.17810343 -0.23555319
0.20791812 0.0979938 -0.07623765 0.106410034 0.026157157 -0.14826973 -0.22986786 -0.21018545
-0.063147776 -0.319674 0.08602946 -0.061575525 -0.010342864 -0.028984448 0.0092869755 0.36254874
0.034336135 0.07934589 0.36830896 0.21069176 -0.028001484 -0.07181634 0.23835494 -0.16555084
0.09298875 -0.19913246 -0.16024336 -0.2506442 0.04517182 -0.24877027 0.12186533 -0.006441353
-0.14194548 -0.19381729 0.15958528 0.018180007 0.11777494 0.25288323 0.076462425 0.24667919
0.24345231 0.084870934 -0.16262923 0.019990254 -0.13208917 -0.04549291 0.06104228 -0.21963713
-0.19041486 -0.051524166 -0.20255212 0.12084433 -0.09417085 0.1815148 -0.2547657 -0.28320667
-0.16066204 -0.31476787 0.14269018 -0.19098364 -0.28680223 -0.015060882 0.055411134 -0.09226728
00000000: efde 1bbe b019 64be 85cd fb3d f836 31be
00000010: a564 ee3d 845a cd3d 4335 b7bd 2291 433e
00000020: 8105 c13d 8e94 323e a947 3a3e f82e 68bd
00000030: b8be 863e 293c 773d b2ed a0bc 1edb a7be
00000040: ca74 c13e a3e1 933e fe4a 4bbe c52f 8f3d
00000050: 0b72 32be dea4 ca3d 47fe aebd 12dc 833d
00000060: 23c0 eabd efe2 ad3c 968a 693d 27dc 903e
00000070: 1347 633e 5584 e4bd 92f4 853e 0a82 89bd
00000080: 936c a9bc 1387 013e d877 7a3e b302 b13a
00000090: 86fd 0d3e 6a94 653e 3f78 ac3e 9694 5e3e
000000a0: 1d55 4e3e b246 0e3e 5987 6abd 51fa d7bd
000000b0: 5329 343e 36e2 c13c 1b4c 12bd 7188 3f3c
000000c0: 2fc2 4a3e 471e eb3d 1471 2d3e 820c 6ebd
000000d0: eab8 143d b5c7 a2bd 14f2 423d 0043 88be
000000e0: 0a53 aabe ea56 2dbe fddd 243e 0516 063e
000000f0: 85bb 01be 48fc 043d 2d38 d93d 6492 ad3e
00000100: 85b4 513e 8c97 51bc cbda 083c d520 79be
00000110: a6b4 883d dae0 07be d151 07be 8684 843e
00000120: e0f2 90bc 066e 433e e3ae 263e d8c7 78bd
00000130: a213 8ebe c4ac 6ebe aef5 843d f041 7e3e
00000140: cfc9 413d 7c02 62bd 6d14 90bd 2710 79be
00000150: bf61 92bd 8bfa ecbd 8d3b 8d3d 0f48 7f3d
00000160: 7912 8b3e 82e5 f53d 2e3a 123c 8727 fc3d
00000170: d21f 22be 7d2f 973d ad04 40be 3524 87be
00000180: fca6 edbd 1ab5 4abe 81dc 81be e42e efbd
00000190: 4a7d 193e f242 05be d028 fcbd 2d7d 1fbd
000001a0: 412c 573d 642e 4e3d 9081 54be 4d18 97bd
000001b0: e003 1dbd 462b 833e 2a1a d3bd 01d1 a33e
000001c0: 60f4 d8be 3cc8 093d b8df 10be 7f63 e43d
000001d0: dadb 11be b509 df3d df42 833d f0fe 543e
000001e0: d50a 00be 28db 3b3c 26fa 26be 40b5 9a3d
000001f0: e301 20bc a34a 64be 8fa4 45be da37 9d3c
00000200: eac3 2e3e e91e 8a3e de81 11be 3026 a73d
00000210: dde2 c63d a847 103d 87cd 29be 53a3 a3bb
00000220: c976 8a3d 571c a53e b046 773e d94a b33d
00000230: 11ee 663e 97dd a53d a1f5 853e 2961 8dbd
00000240: 0ff8 b0be 961d 17be 845b c0bd 6b34 af3c
00000250: fd7f fdbd 74a0 123e 6b93 7e3e 9b0b 8d3d
00000260: 6a6f 4e3d 50f9 bf3d 5cce 613e ac4b 82be
00000270: 229f 75bd 6347 83be 187b 833c 7cce b43d
00000280: cd45 62be a179 893e 5e2d 163e d493 a13e
00000290: c281 623e 4254 8c3e a607 c0bd d8d2 c9bd
000002a0: 0d09 e83d 9850 1e3e b0e0 04be f041 46be
000002b0: 9ba6 253d d4e3 8abd 2570 60bd 8121 73bd
000002c0: 9ded 28be 328c 12bc e0b5 1abe f9a5 89be
000002d0: b9c4 a6bd 9e3a 0dbd d4ce 37be 64ea 8fbd
000002e0: 7faf 65be 6b65 8b3c d6cb b93d 3e63 19be
000002f0: ce22 5bbe c158 63be bf60 36be db34 71be
00000300: 7de8 543e f9b0 c83d 7c22 9cbd 81ed d93d
00000310: 8947 d63c 05d4 17be 7b62 6bbe db3a 57be
00000320: 9f53 81bd 4fac a3be 3730 b03d 9e36 7cbd
00000330: 1e75 29bc cb70 edbc 6628 183c fd9f b93e
00000340: 0ca4 0c3d 1980 a23d fe92 bc3e 95bf 573e
00000350: 5e63 e5bc 7214 93bd 5113 743e 2986 29be
00000360: e370 be3d 61e9 4bbe d616 24be 7054 80be
00000370: 1606 393d a2bd 7ebe 8894 f93d fc11 d3bb
00000380: 285a 11be 0a78 46be 536a 233e 3dee 943c
00000390: fd33 f13d e979 813e 5598 9c3d 7899 7c3e
000003a0: 904b 793e d0d0 ad3d 4788 26be 9ac2 a33c
000003b0: 6242 07be c656 3abd 7807 7a3d 8ee8 60be
000003c0: 1dfc 42be 010b 53bd d369 4fbe 3b7d f73d
000003d0: a6dc c0bd 04df 393e a670 82be 7700 91be
000003e0: 9784 24be 4129 a1be 601d 123e 3791 43be
000003f0: bed7 92be ebc1 76bc c9f6 623d a1f6 bcbd

net.conv_block.temporal_convs.0.2.weight f4 [16]
1.3459895 1.1280746 1.1865354 1.3670694 1.5192728 1.4631945 1.0544912 1.1997486
1.0454894 1.189582 0.984781 1.0763922 1.0567005 1.1679629 1.270137 0.97182435
00000000: 6249 ac3f c064 903f 64e0 973f 21fc ae3f
00000010: 8877 c23f f549 bb3f 91f9 863f 5d91 993f
00000020: 99d2 853f 3944 983f 9c1a 7c3f 38c7 893f
00000030: f641 873f cf7f 953f d993 a23f 7bc9 783f

net.conv_block.temporal_convs.0.2.bias f4 [16]
-0.043064747 0.030376738 -0.043559045 -0.032082643 -0.008757535 0.09861666 -0.08358456 -0.0139146205
-0.0021211898 0.002784495 -0.051361617 -0.019708494 -0.031715345 0.03709317 -0.018801376 0.015611105
00000000: a964 30bd a3d8 f83c f86a 32bd 1769 03bd
00000010: c47b 0fbc 88f7 c93d 622e abbd 26fa 63bc
00000020: a903 0bbb 137c 363b 8f60 52bd b573 a1bc
00000030: f3e7 01bd 02ef 173d 5805 9abc b8c5 7f3c

net.conv_block.temporal_convs.0.2.running_mean f4 [16]
-0.0012570911 -0.0041716294 -0.0070597013 -0.0011611537 -0.00048691427 0.0016572033 0.00248781 0.0033829757
-0.0066408054 0.0011717044 -0.0025578144 0.008980749 0.0011432605 -9.621637e-05 -0.0017324864 0.0070891734
00000000: fac4 a4ba 2ab2 88bb 1155 e7bb da31 98ba
00000010: 8748 ffb9 8436 d93a 870a 233b eab4 5d3b
00000020: 1d9b d9bb e093 993a 01a1 27bb fe23 133c
00000030: 75d9 953a c5c7 c9b8 9914 e3ba 4c4c e83b

net.conv_block.temporal_convs.0.2.running_var f4 [16]
0.64971507 0.332196 1.2804568 0.63867134 0.18620503 0.4059812 0.6706429 0.2515353
0.72379345 0.5176737 0.94650865 0.83575755 0.80068576 0.8992645 0.8131312 0.79017776
00000000: ba53 263f 9815 aa3e 02e6 a33f f77f 233f
00000010: 88ac 3e3e c5dc cf3e 41af 2b3f 3cc9 803e
00000020: 874a 393f 4386 043f 644e 723f 35f4 553f
00000030: bef9 4c3f 3336 663f 5e29 503f 1749 4a3f

net.conv_block.temporal_convs.1.1.weight f4 [16, 1, 1, 32]
0.25427464 0.08198318 -0.1646959 -0.14491369 -0.284362 -0.025306288 0.10491005 0.013277324
0.3135282 0.06253702 0.042107668 -0.016965441 0.037765138 -0.10722392 0.010547866 -0.041321952
-0.18237942 -0.07779642 0.1871891 0.22849214 0.19049545 -0.1341902 -0.03364588 -0.011235938
-0.15765488 -0.14080167 -0.09670937 0.029909573 0.19362569 0.14476618 0.10834142 -0.074552685
-0.12853752 -0.12201583 -0.03631616 -0.06403152 -0.19849421 -0.026031211 -0.19046207 -0.12462464
-0.08176792 0.07008994 -0.067581944 0.051222682 0.020149818 -0.11000006 -0.1119627 -0.025955189
-0.10050402 -0.06250689 -0.30935282 -0.0740075 -0.27225184 -0.13889201 -0.080983594 -0.09918727
-0.1546053 0.027710445 0.12513852 -0.19024917 -0.1336303 -0.017547833 -0.036806077 0.006768291
-0.13573197 -0.13967218 -0.099168755 -0.060481556 0.014504032 0.14815955 0.07721714 0.16161889
0.23377363 0.20056139 0.09566581 -0.12981509 -0.12264223 -0.3147905 -0.16426457 -0.15807043
-0.2208207 0.14985354 0.108106025 0.18046291 0.19855468 0.033543807 0.17325328 0.05381343
-0.16273734 0.04406445 -0.10804082 0.04060762 0.090066686 0.019532068 -0.10986099 0.046511408
0.395158 0.14585038 0.060152415 0.2758531 0.15338053 0.21175642 -0.06267218 -0.0333523
0.15128022 -0.19686656 0.008358256 0.04638335 -0.04571239 -0.20283675 -0.044217836 -0.06760056
0.030696902 -0.02563481 0.11473463 0.06615342 0.01029317 -0.054801498 0.06568689 -0.23509748
-0.021611486 -0.027856756 -0.19044034 -0.08324449 0.11019096 -0.03033656 0.078603275 -0.1310973
0.11096148 -0.17868325 -0.02580301 -0.20518838 -0.17401853 0.007647605 0.21239704 0.08512773
0.065387845 0.14612016 0.14529113 0.16523662 -0.1035785 -0.044791132 -0.093835495 -0.08059473
-0.16334628 -0.117775425 -0.12099452 0.08508755 0.094432004 0.048611805 0.17303836 0.15829279
0.14061727 -0.06772669 0.066026606 -0.09051073 -0.043189988 -0.107897975 -0.15846892 0.17767048
0.35609698 0.07778234 0.22395238 -0.05755359 0.08337138 -0.050821714 -0.103716955 -0.09315196
0.09082412 -0.1495444 -0.21907656 0.0853671 -0.114128865 -0.15915912 -0.05663533 0.16310808
0.07341913 -0.045983516 0.21949457 0.075261556 0.05274116 0.16755883 0.18988155 0.16751856
-0.051263474 0.18409722 0.053255226 -0.13000745 -0.05935773 0.05771295 -0.054758925 -0.1959525
-0.3153264 0.080966175 0.06546476 0.16815625 0.21765915 0.09326707 -0.11817692 -0.050140362
-0.0079039475 -0.06723384 -0.034710456 0.06487177 0.052106768 0.049597062 0.11368488 -0.17118035
-0.17872702 -0.11857129 -0.20318247 0.09678279 0.06313423 0.18031268 0.10552054 0.06074071
0.08752208 0.0018262742 -0.008075265 -0.0069472142 -0.0034160027 -0.057716317 -0.18839534 0.0052454774
0.1185184 0.22681172 -0.09510369 0.10096898 0.15459718 0.02601861 -0.09539038 -0.1956063
-0.06428141 -0.043600425 -0.02525495 0.033065315 0.027396072 0.23749763 0.18440263 0.1634049
0.11805498 -0.09067528 -0.1696587 -0.20483683 -0.051993523 -0.14230025 -0.054677796 -0.20265341
-0.07427588 0.039797544 0.07194881 0.32938924 -0.017349552 -0.0077985097 -0.02796044 -0.15917982
00000000: 4930 823e cce6 a73d 0ba6 28be 4164 14be
00000010: e597 91be 224f cfbc 15db d63d 2289 593c
00000020: c586 a03e 6913 803d 1779 2c3d 1cfb 8abc
00000030: 9eaf 1a3d 3798 dbbd f5d0 2c3c 3541 29bd
00000040: acc1 3abe bb53 9fbd 80ae 3f3e d8f9 693e
00000050: 3d11 433e 2869 09be 43d0 09bd f116 38bc
00000060: 4870 21be 502e 10be 900f c6bd ec04 f53c
00000070: d045 463e 963d 143e 1be2 dd3d 14af 98bd
00000080: 579f 03be 6fe3 f9bd 41c0 14bd f522 83bd
00000090: 1142 4bbe 683f d5bc 7d08 43be 343b ffbd
000000a0: f075 a7bd 518b 8f3d 6768 8abd e0ce 513d
000000b0: 3b11 a53c b647 e1bd b34c e5bd fa9f d4bc
000000c0: 0dd5 cdbd 9d03 80bd 7e63 9ebe 3f91 97bd
000000d0: 9864 8bbe b539 0ebe bada a5bd b222 cbbd
000000e0: da50 1ebe 0401 e33c 5024 003e aed0 42be
000000f0: 62d6 08be 79c0 8fbc f8c1 16bd 8ac8 dd3b
00000100: 52fd 0abe 3906 0fbe fd18 cbbd 82bb 77bd
00000110: 52a2 6d3c 23b7 173e 0524 9e3d 6c7f 253e
00000120: 5b62 6f3e f75f 4d3e 70ec c33d 3fee 04be
00000130: d92b fbbd 382c a1be f934 28be 37dd 21be
00000140: d21e 62be 3573 193e b166 dd3d 45cb 383e
00000150: eb51 4b3e 3b65 093d 4f69 313e 796b 5c3d
00000160: 9ea4 26be ed7c 343d 8144 ddbd 2d54 263d
00000170: e274 b83d b701 a03c ccfe e0bd bf82 3e3d
00000180: 2652 ca3e cd59 153e 6162 763d 9e3c 8d3e
00000190: c90f 1d3e add6 583e 465a 80bd 6c9c 08bd
000001a0: 34e9 1a3e 6397 49be 11f1 083c 78fc 3d3d
000001b0: ea3c 3bbd 70b4 4fbe c31d 35bd 2a72 8abd
000001c0: 1278 fb3c 1800 d2bc fdf9 ea3d 727b 873d
000001d0: afa4 283c 8977 60bd d986 863d 65bd 70be
000001e0: 920a b1bc da33 e4bc cb02 43be 167c aabd
000001f0: ccab e13d 6184 f8bc c1fa a03d 5f3e 06be
00000200: c63f e33d bef8 36be d660 d3bc e71c 52be
00000210: ea31 32be c398 fa3b 9c7e 593e 7357 ae3d
00000220: 10ea 853d 86a0 153e 33c7 143e ca33 293e
00000230: f720 d4bd e876 37bd d32c c0bd da0e a5bd
00000240: 3f44 27be 3e34 f1bd facb f7bd 6242 ae3d
00000250: 9165 c13d 2c1d 473d f830 313e 8117 223e
00000260: f9fd 0f3e 4ab4 8abd f538 873d b15d b9bd
00000270: fce7 30bd 9df9 dcbd ad45 22be 40ef 353e
00000280: 5852 b63e 594c 9f3d c653 653e 50bd 6bbd
00000290: 9dbe aa3d 6e2a 50bd 8e69 d4bd 74c6 bebd
000002a0: ff01 ba3d 2b22 19be 9b55 60be f2d4 ae3d
000002b0: 65bc e9bd 9cfa 22be 73fa 67bd ce05 273e
000002c0: c55c 963d 3659 3cbd 2fc3 603e bb22 9a3d
000002d0: 1d07 583d 8b94 2b3e 4f70 423e fc89 2b3e
000002e0: a6f9 51bd fb83 3c3e 2722 5a3d ac20 05be
000002f0: 1721 73bd 6a64 6c3d e54a 60bd c6a7 48be
00000300: 7672 a1be 98d1 a53d 6312 863d 2731 2c3e
00000310: 0ae2 5e3e ce02 bf3d be06 f2bd fb5f 4dbd
00000320: 8f7f 01bc e5b1 89bd 8d2c 0ebd 7edb 843d
00000330: e86d 553d 4a26 4b3d 9ed3 e83d e749 2fbe
00000340: 3704 37be 81d5 f2bd 110f 50be 0e36 c63d
00000350: 854c 813d e3a3 383e 271b d83d 40cb 783d
00000360: c73e b33d 985f ef3a 1e4e 04bc 75a5 e3bb
00000370: 04df 5fbb f267 6cbd b5ea 40be 41e2 ab3b
00000380: c6b9 f23d 5541 683e b9c5 c2bd d3c8 ce3d
00000390: b94e 1e3e fb24 d53c 085c c3bd 054d 48be
000003a0: f9a5 83bd 5c96 32bd 78e3 cebc 7f6f 073d
000003b0: ba6d e03c 9432 733e 0bd4 3c3e 9d53 273e
000003c0: cfc6 f13d f6b3 b9bd 03bb 2dbe bfc0 51be
000003d0: 29f7 54bd 28b7 11be d3f5 5fbd 6084 4fbe
000003e0: f41d 98bd c002 233d e659 933d b5a5 a83e
000003f0: a620 8ebc a48a ffbb 4b0d e5bc 0900 23be

net.conv_block.temporal_convs.1.2.weight f4 [16]
1.4237022 1.1218581 1.390406 1.0597314 1.2283549 1.1989508 1.398679 1.1588398
1.0457274 1.0190806 1.0484538 1.0848376 1.2765992 1.0770288 1.1492616 1.1177955
00000000: e03b b63f 0c99 8f3f d3f8 b13f 47a5 873f
00000010: bc3a 9d3f 3877 993f ea07 b33f dd54 943f
00000020: 65da 853f 3c71 823f bc33 863f f5db 8a3f
00000030: 9a67 a33f 14dc 893f 011b 933f ec13 8f3f

net.conv_block.temporal_convs.1.2.bias f4 [16]
-0.044057623 0.015825892 0.024161648 0.025173778 -0.06294367 -0.003830714 0.0016806164 0.010656501
-0.024478257 0.040520716 -0.0010353401 -0.08185384 0.046434816 -0.042578697 0.009263546 -0.0053215763
00000000: c475 34bd 4da5 813c a6ee c53c 3d39 ce3c
00000010: 9ce8 80bd b70c 7bbb 2148 dc3a 9b98 2e3c
00000020: a086 c8bc 0df9 253d 40b4 87ba fca2 a7bd
00000030: 6f32 3e3d 0067 2ebd 21c6 173c 9e60 aebb

net.conv_block.temporal_convs.1.2.running_mean f4 [16]
-0.0015812031 0.011436497 -0.00046875866 -0.001690374 -0.00047978573 -0.003019254 0.0002011691 -0.00046543172
-0.0047928104 -0.0006834608 -0.0016489623 -0.0025293324 -0.0014710666 0.001781551 -0.00907608 -0.002275879
00000000: 5f40 cfba 2560 3b3c b9c3 f5b9 8a8f ddba
00000010: c08b fbb9 adde 45bb ebf0 5239 3005 f4b9
00000020: 020d 9dbb 472a 33ba fe21 d8ba 28c3 25bb
00000030: ced0 c0ba ef82 e93a d7b3 14bc ea26 15bb

net.conv_block.temporal_convs.1.2.running_var f4 [16]
0.53981 0.6164307 1.0786091 1.1021835 0.6477909 1.6154362 0.50539184 0.77764994
1.0238767 1.4499562 1.3711668 0.70167476 0.7572141 0.6728636 1.1068093 1.1160009
00000000: fd30 0a3f 67ce 1d3f dd0f 8a3f 5914 8d3f
00000010: a0d5 253f 9dc6 ce3f 5c61 013f 1114 473f
00000020: 640e 833f 2a98 b93f 6582 af3f f5a0 333f
00000030: c9d8 413f ca40 2c3f edab 8d3f 1ed9 8e3f

net.conv_block.temporal_convs.2.1.weight f4 [16, 1, 1, 64]
-0.13841888 -0.10901153 0.053760044 -0.11266963 0.022027506 -0.02999181 -0.012828539 -0.0027980183
0.048808143 -0.0074194167 -0.10060968 0.05397854 0.13316266 0.079745054 0.21852893 0.2270013
0.03729356 0.14422983 0.075574726 -0.013355384 0.0563933 -0.021794634 -0.05250255 -0.04345183
0.10004115 0.11233078 0.14403515 -0.0031596345 0.033497646 0.11124171 0.2557282 0.0036832383
0.064970516 0.103918746 -0.14874047 -0.10200783 -0.03774583 -0.040536728 0.043538112 -0.04019019
-0.14491086 0.034705456 0.07642909 -0.11510881 -0.1381894 -0.15471426 -0.19525056 -0.092385836
-0.055781215 -0.24853654 -0.08342727 -0.033225033 0.015655179 -0.032115724 -0.01683433 0.16311358
0.08095228 0.02738564 -0.12418829 -0.18887642 -0.105005205 -0.1433502 -0.33756772 -0.22824201
-0.1325556 -0.036853794 -0.040646724 -0.08583945 -0.096263446 -0.03343642 -0.16627909 -0.062676355
-0.044060376 0.017546842 0.08717257 0.09952102 -0.02684504 0.036636595 0.21270895 0.119205594
0.033954907 -0.14094283 -0.125177 -0.13313884 -0.2536887 -0.14468822 -0.13272524 -4.4707005e-05
-0.052342247 0.14408657 -0.005917526 0.011083908 -0.07007197 -0.023616938 -0.103673145 0.047960043
0.06994771 0.20112479 0.17615914 0.17033686 0.0711843 0.09790734 0.080975115 -0.00135876
-0.070840016 -0.20829707 -0.28247574 -0.041158535 -0.07479855 0.08240963 0.080793284 0.0779685
0.088147156 0.07705239 0.14289473 0.037784513 0.12996678 -0.018129941 0.058998514 0.09010374
-0.019322928 -0.08792239 -0.104592286 -0.086773664 -0.078064114 -0.058188185 -0.11898087 0.053553686
-0.1142 -0.1764689 -0.03877182 0.03342698 0.01697677 0.11408091 0.11697054 -0.035005458
0.018224599 0.008255494 -0.022074005 -0.2480976 -0.2666506 -0.24283123 -0.16098696 -0.041927747
-0.15464759 -6.60498e-05 -0.044162624 0.2010599 0.038579028 0.11890162 0.13719103 -0.011447842
0.04174476 -0.06487445 -0.028223036 0.043073796 -0.0074252365 -0.0012183235 -0.035540048 -0.041548952
-0.107187405 0.040524468 -0.012371702 -0.056267846 0.0888098 -0.0745113 -0.008706251 0.02335056
-0.18232414 -0.13155766 -0.08134525 -0.040618904 0.034350645 0.124077566 0.2057045 0.031964976
0.17825897 0.13600257 0.17916358 0.09221194 -0.07063485 0.08791952 -0.09080257 -0.056015458
-0.19560996 -0.11516524 -0.07698013 -0.19117357 -0.10287551 -0.007342373 0.17518553 0.10770594
0.20976941 0.06761032 -0.0065016737 -3.309375e-05 0.078061804 0.22713102 0.06821622 0.1570504
-0.061724517 -0.1898831 -0.13494301 -0.27348045 -0.09901115 -0.10969225 0.10978967 -0.020410784
0.16662034 -0.011257146 0.103054956 -0.10929814 0.023069542 0.008504433 0.055885553 0.05195342
0.12731244 -0.01012107 0.032433342 0.09941815 -0.13205147 0.015103822 -0.06318985 -0.19809572
-0.019797422 -0.16587551 -0.083548315 -0.08833705 0.0029127924 0.086582616 -0.10181563 0.105150945
-0.032383524 0.10064523 -0.0037304393 0.08695802 -0.16936123 -0.045681182 -0.13968235 -0.36749855
-0.12568462 -0.12722334 -0.010077378 -0.025044976 0.13332678 0.016258728 -0.008636661 -0.042197973
0.07055127 0.039432876 0.061144736 -0.011899137 -0.18427294 -0.13290371 -0.14919515 -0.26687202
00000000: aebd 0dbe 7041 dfbd 7e33 5c3d 56bf e6bd
00000010: 0773 b43c 62b1 f5bc cb2e 52bc f55e 37bb
00000020: 0ceb 473d 941e f3bb 730c cebd 9a18 5d3d
00000030: cb5b 083e 6051 a33d 0cc6 5f3e 0773 683e
00000040: 22c1 183d fcb0 133e ecc6 9a3d 8ad0 5abc
00000050: a9fc 663d a98a b2bc ea0c 57bd 8cfa 31bd
00000060: 60e2 cc3d ae0d e63d f37d 133e df11 4fbb
00000070: d434 093d b2d2 e33d ceee 823e 7c62 713b
00000080: 430f 853d 5ad3 d43d 6c4f 18be 7be9 d0bd
00000090: 5f9b 1abd d709 26bd 0555 323d 789e 24bd
000000a0: 8363 14be 4f27 0e3d db86 9c3d 2bbe ebbd
000000b0: 8681 0dbe 6a6d 1ebe c3ef 47be c934 bdbd
000000c0: d87a 64bd 5d80 7ebe ebdb aabd f916 08bd
000000d0: 4a3f 803c c78b 03bd 26e8 89bc 3f07 273e
000000e0: 4fca a53d da57 e03c 6e56 febd d268 41be
000000f0: f80c d7bd 65ca 12be add5 acbe 46b8 69be
00000100: a8bc 07be 01f4 16bd 2e7d 26bd 98cc afbd
00000110: c525 c5bd a1f4 08bd 1145 2abe 765c 80bd
00000120: a778 34bd 65be 8f3c 8887 b23d add1 cb3d
00000130: 21ea dbbc 4110 163d 60d0 593e 1022 f43d
00000140: 4d14 0b3d 5153 10be 662e 00be 8c55 08be
00000150: 7ce3 81be 2629 14be 20e9 07be c883 3bb8
00000160: d364 56bd 6e8b 133e cee7 c1bb 4899 353c
00000170: e581 8fbd 4f78 c1bc 9652 d4bd c071 443d
00000180: bf40 8f3d a8f3 4d3e 1063 343e c96c 2e3e
00000190: 13c9 913d a583 c83d 48d6 a53d 6c18 b2ba
000001a0: 9214 91bd d44b 55be a9a0 90be da95 28bd
000001b0: fb2f 99bd 61c6 a83d f376 a53d f3ad 9f3d
000001c0: 7f86 b43d a5cd 9d3d ff52 123e efc3 1a3d
000001d0: 0316 053e 3e85 94bc 6da8 713d 4f88 b83d
000001e0: 1e4b 9ebc a710 b4bd 7b34 d6bd 64b6 b1bd
000001f0: 14e0 9fbd bc56 6ebd 3eac f3bd 1c5b 5b3d
00000200: b1e1 e9bd 43b4 34be 33cf 1ebd bbea 083d
00000210: de12 8b3c 41a3 e93d 408e ef3d e261 0fbd
00000220: c14b 953c 0d42 073c 8bd4 b4bc 4c0d 7ebe
00000230: 6d86 88be c0a8 78be c4d9 24be 6ebc 2bbd
00000240: f05b 1ebe 3784 8ab8 dee3 34bd a5e2 4d3e
00000250: 0b05 1e3d b182 f33d ce7b 0c3e bb8f 3bbc
00000260: 8efc 2a3d e5dc 84bd ff33 e7bc 266e 303d
00000270: 664f f3bb 27b0 9fba 7192 11bd 3c2f 2abd
00000280: 1285 dbbd fcfc 253d aeb2 4abc 1d79 66bd
00000290: eae1 b53d 6199 98bd aaa4 0ebc ac49 bf3c
000002a0: 2eb3 3abe 0db7 06be 5798 a6bd 0260 26bd
000002b0: 43b3 0c3d 611c fe3d 33a4 523e b5ed 023d
000002c0: 8589 363e 4244 0b3e a876 373e 9dd9 bc3d
000002d0: 01a9 90bd 260f b43d b3f6 b9bd 7770 65bd
000002e0: fa4d 48be c1db ebbd c2a7 9dbd 01c3 43be
000002f0: 65b0 d2bd 4a98 f0bb d663 333e ef94 dc3d
00000300: cbcd 563e 4877 8a3d fe0b d5bb 25ce 0ab8
00000310: dede 9f3d 0995 683e f2b4 8b3d d2d1 203e
00000320: d9d2 7cbd b770 42be 802e 0abe a105 8cbe
00000330: 5cc6 cabd 55a6 e0bd 68d9 e03d 8434 a7bc
00000340: 869e 2a3e e46f 38bc 7a0e d33d b4d7 dfbd
00000350: 56fc bc3c 2d56 0b3c 40e8 643d 1ccd 543d
00000360: 315e 023e d8d2 25bc d3d8 043d be9b cb3d
00000370: 8038 07be 0576 773c ae69 81bd 9bd9 4abe
00000380: 342e a2bc 45db 29be 611b abbd 0eea b4bd
00000390: 8ce4 3e3b 3a52 b13d b784 d0bd 6159 d73d
000003a0: 96a4 04bd 161f ce3d 637a 74bb 0c17 b23d
000003b0: 086d 2dbe 311c 3bbd e408 0fbe c528 bcbe
000003c0: 78b3 00be d646 02be 961b 25bc 1f2b cdbc
000003d0: d186 083e 0631 853c c880 0dbc c8d7 2cbd
000003e0: 2f7d 903d 5e84 213d e772 7a3d 99f4 42bc
000003f0: 0cb2 3cbe e917 08be 9dc6 18be 73a3 88be

net.conv_block.temporal_convs.2.2.weight f4 [16]
1.210564 1.1405077 1.1312096 1.3153478 1.5570995 1.2423832 1.1560925 1.3016156
1.2669355 0.96111655 1.2497637 0.9757789 1.5839543 1.2966214 1.331774 1.0695021
00000000: c3f3 9a3f 28fc 913f 7acb 903f 515d a83f
00000010: 094f c73f 6a06 9f3f d7fa 933f 579b a63f
00000020: f12a a23f bc0b 763f 42f8 9f3f a5cc 793f
00000030: 04bf ca3f b1f7 a53f 9277 aa3f 72e5 883f

net.conv_block.temporal_convs.2.2.bias f4 [16]
-0.054756057 -0.0062437956 -0.0038106756 -0.058007836 0.01755007 -0.005915528 -0.044975348 0.07700439
-0.008229961 -0.0770042 0.059375253 -0.0194635 0.003394567 0.04671582 -0.045227904 -0.05749954
00000000: e347 60bd c198 ccbb 87bc 79bb a099 6dbd
00000010: 2ac5 8f3c 0cd7 c1bb 1238 38bd 7ab4 9d3d
00000020: f5d6 06bc 61b4 9dbd 7733 733d eb71 9fbc
00000030: 6277 5e3b 1659 3f3d e540 39bd a384 6bbd

net.conv_block.temporal_convs.2.2.running_mean f4 [16]
0.0051869527 0.0021614667 0.003747186 0.007044657 -0.0011427308 0.0034852687 0.004820068 0.0018976611
-0.007932303 0.010512762 0.00017666291 0.016791878 -0.0020220769 -0.008832204 0.0027187094 0.0032590702
00000000: 50f7 a93b 65a7 0d3b 5993 753b ded6 e63b
00000010: afc7 95ba 1b69 643b a9f1 9d3b f1ba f83a
00000020: 7df6 01bc b83d 2c3c 973e 3939 1f8f 893c
00000030: d284 04bb f3b4 10bc 602c 323b 2096 553b

net.conv_block.temporal_convs.2.2.running_var f4 [16]
1.5840312 1.8880898 2.451809 1.4530817 1.1779536 1.8562977 1.9352547 2.4939234
1.1494557 3.9608986 3.371795 1.8681749 1.0566354 1.7784456 1.3051032 1.151256
00000000: 89c1 ca3f edac f13f 70ea 1c40 95fe b93f
00000010: 2fc7 963f 2a9b ed3f 6db6 f73f 719c 1f40
00000020: 5d21 933f 5d7f 7d40 7dcb 5740 5b20 ef3f
00000030: d43f 873f 1ba4 e33f 9f0d a73f 5b5c 933f

net.conv_block.channel_DW_conv.0.weight f4 [96, 1, 22, 1]
0.029353496 0.06679657 -0.06887712 0.20157982 0.1699721 0.108183704 0.114891574 0.09095176
0.17534593 -0.22647753 0.17352186 -0.013803676 0.007016002 0.048917904 -0.11545792 -0.26019734
0.0116191665 0.059137776 0.04052256 -0.26885697 -0.04193174 0.086539984 -0.039602194 0.10590149
-0.039662905 -0.2330457 0.18964347 0.034600656 0.014696357 0.02271198 -0.00043845185 0.0002997104
-0.21408333 0.05611021 0.105000615 -0.13990021 -0.026760664 0.43304712 -0.12739417 -0.07153598
-0.071865804 0.23202857 -0.16382119 -0.014903782 0.09745029 -0.082573645 -0.05587754 0.07900336
0.06484444 -0.19657518 0.033204406 -0.03648234 -0.043597538 -0.19084053 -0.056017477 -0.18669452
0.066155605 -0.02628539 -0.31689718 0.25722167 0.32997015 0.17282318 -0.26322344 0.19926482
0.18990073 -0.011248233 -0.21291828 0.017729979 -0.06560358 0.16620061 0.07989422 -0.08804448
-0.016419945 0.101978846 -0.04301705 -0.053117014 0.16530962 0.29145378 0.09175342 0.25942242
-0.123185456 -0.29132754 -0.09296459 -0.14040832 0.022023154 -0.06131358 -0.089154035 0.085375205
-0.02422967 -0.059388753 0.18250845 0.12083463 0.025067212 -0.19033615 0.2407871 0.14849468
-0.20978917 -0.29566735 -0.12800287 -0.06679978 0.1508212 0.34442198 0.13733537 -0.2849537
0.09376663 0.13007754 0.15101607 0.039338954 -0.084355794 -0.007857602 -0.027602097 0.10379832
0.21207906 0.04970988 0.117563315 -0.15559834 -0.17087737 -0.09113015 -0.14311051 0.19379982
0.042306904 0.10601476 0.058661472 -0.36773786 -0.05066964 -0.022084555 -0.073105425 0.15602681
-0.1151444 0.060424443 -0.2198892 0.07691872 0.110639416 -0.1697089 -0.081995495 0.023801984
0.2838211 0.1252081 0.10218345 -0.04435004 0.0035669373 0.11947608 0.0708069 -0.37396428
-0.14751834 -0.022587048 0.0351051 -0.073832184 0.017049912 -0.20562363 0.014069941 0.13606852
0.06260307 0.027735962 0.2011385 -0.072703354 -0.061582178 -0.24645315 0.12165368 0.1753914
-0.0108023975 -0.034999344 0.08681561 -0.23524463 0.07899997 -0.07501485 0.24651976 0.03431857
-0.11886543 0.019885242 0.038993742 -0.27596 0.19841914 0.147915 -0.080014706 0.085491605
-0.16298991 -0.19983943 -0.0735518 -0.05090515 -0.03723339 -0.23237357 0.047996666 0.032865867
-0.10571207 -0.08055257 0.099421434 -0.26751718 -0.024624892 -0.08879738 -0.002029315 0.25494987
0.10813763 0.16891827 0.23710102 0.10966951 0.2160092 0.08671317 -0.16243525 -0.10712964
0.10708894 -0.22215293 -0.050084986 -0.027111849 0.030141775 -0.17781375 0.20863189 0.5574996
0.17214625 -0.12750067 0.031337216 0.0032523635 -0.12152832 0.17942142 -0.06077704 -0.17099868
0.062110357 -0.027428582 -0.031563528 -0.053790428 -0.0005817957 0.12828223 -0.1496442 -0.1253222
0.082936 -0.0035270248 0.012832246 0.027769743 -0.09809071 0.10358897 -0.17422326 0.011535423
0.01602114 -0.20102583 0.043095812 0.44298285 0.04476349 -0.20128725 -0.037366528 0.21829046
-0.14340135 -0.068672165 0.0002899453 0.14342453 0.12560718 -0.22434309 -0.15881394 -0.17639983
-0.12586716 0.09243585 -0.05496005 -0.19869497 0.10708274 0.3360526 0.041754223 0.053026468
00000000: be76 f03c a4cc 883d 730f 8dbd f16a 4e3e
00000010: 2b0d 2e3e 6b8f dd3d 464c eb3d eb44 ba3d
00000020: e28d 333e bae9 67be b7af 313e d028 62bc
00000030: 7ee6 e53b 245e 483d 3475 ecbd 9638 85be
00000040: 515e 3e3c 743a 723d fcfa 253d 9fa7 89be
00000050: 9ec0 2bbd e03b b13d e935 22bd e1e2 d83d
00000060: 9275 22bd 88a3 6ebe e631 423e 6bb9 0d3d
00000070: fdc8 703c 790e ba3c 03e0 e5b9 7322 9d39
00000080: a938 5bbe d2d3 653d 900a d73d 0042 0fbe
00000090: 2e39 dbbc 5ab8 dd3e 9e73 02be 7581 92bd
000000a0: 612e 93bd e698 6d3e bec0 27be fe2e 74bc
000000b0: 0594 c73d 5f1c a9bd d9df 64bd 83cc a13d
000000c0: 29cd 843d 014b 49be 5801 083d 826e 15bd
000000d0: 5593 32bd b36b 43be 9572 65bd d92c 3fbe
000000e0: 977c 873d 7554 d7bc 5940 a2be 8fb2 833e
000000f0: d9f1 a83e 8ff8 303e 39c5 86be 140c 4c3e
00000100: 5675 423e 824a 38bc 4007 5abe 763e 913c
00000110: 2b5b 86bd 7e30 2a3e 959f a33d aa50 b4bd
00000120: 1f83 86bc 49da d03d a532 30bd 3a91 59bd
00000130: ed46 293e 6e39 953e 38e9 bb3d 04d3 843e
00000140: a848 fcbd e228 95be 3864 bebd 33c7 0fbe
00000150: e769 b43c f323 7bbd 6496 b6bd 32d9 ae3d
00000160: 4d7d c6bc 9f41 73bd 7fe3 3a3e 2678 f73d
00000170: c159 cd3c 7be7 42be e590 763e fd0e 183e
00000180: f9d2 56be b661 97be 2f13 03be 53ce 88bd
00000190: df70 1a3e 1458 b03e a5a1 0c3e 74e5 91be
000001a0: b808 c03d 0c33 053e f5a3 1a3e e221 213d
000001b0: bbc2 acbd 2cbd 00bc cb1d e2bc 3794 d43d
000001c0: 412b 593e 969c 4b3d 09c5 f03d 2c55 1fbe
000001d0: 7afa 2ebe 72a2 babd 908b 12be 7673 463e
000001e0: 014a 2d3d 441e d93d 0347 703d 2348 bcbe
000001f0: f88a 4fbd abea b4bc 4cb8 95bd 7ec5 1f3e
00000200: d4d0 ebbd 9f7f 773d a22a 61be 9087 9d3d
00000210: eb96 e23d 2bc8 2dbe 41ed a7bd 61fc c23c
00000220: 0051 913e 8d36 003e 8e45 d13d 63a8 35bd
00000230: 47c3 693b e0af f43d 3503 913d 3f78 bfbe
00000240: 0c0f 17be 7908 b9bc 5eca 0f3d 5435 97bd
00000250: 42ac 8b3c 008f 52be 9c85 663c 8c55 0b3e
00000260: 0a36 803d 8736 e33c 40f7 4d3e 7fe5 94bd
00000270: 983d 7cbd 375e 7cbe 9125 f93d ce99 333e
00000280: 8afc 30bc 795b 0fbd 62cc b13d f8e3 70be
00000290: bcca a13d 63a1 99bd ad6f 7c3e a191 0c3d
000002a0: b86f f3bd 60e6 a23c e7b7 1f3d a14a 8dbe
000002b0: 632e 4b3e 0877 173e c0de a3bd 3916 af3d
000002c0: d4e6 26be b5a2 4cbe 53a2 96bd eb81 50bd
000002d0: 0a82 18bd 56f3 6dbe 2798 443d 5c9e 063d
000002e0: 927f d8bd bff8 a4bd 779d cb3d 03f8 88be
000002f0: 24ba c9bc 67db b5bd 42fe 04bb ca88 823e
00000300: 4377 dd3d e9f8 2c3e 9cca 723e 689a e03d
00000310: 8431 5d3e ad96 b13d 6d55 26be c966 dbbd
00000320: 7251 db3d 0f7c 63be ea25 4dbd ab19 debc
00000330: e2eb f63c cf14 36be 99a3 553e 4bb8 0e3f
00000340: 1b47 303e 898f 02be 745b 003d 9b25 553b
00000350: d7e3 f8bd 40ba 373e 58f1 78bd 471a 2fbe
00000360: 6e67 7e3d e8b1 e0bc c248 01bd 5a53 5cbd
00000370: a683 18ba 6b5c 033e 543c 19be 7654 00be
00000380: 59da a93d a825 67bb 573e 523c 5f7d e33c
00000390: c8e3 c8bd 7426 d43d 9567 32be 12ff 3c3c
000003a0: c43e 833c b7d9 4dbe 3c85 303d a6ce e23e
000003b0: ec59 373d 3f1e 4ebe a50d 19bd 8987 5f3e
000003c0: ced7 12be fea3 8cbd cd03 9839 e1dd 123e
000003d0: 2b9f 003e 32ba 65be 1fa0 22be 28a2 34be
000003e0: 52e3 00be 024f bd3d ca1d 61bd b276 4bbe
000003f0: 324e db3d 160f ac3e 7a06 2b3d 4832 593d

net.conv_block.channel_DW_conv.1.weight f4 [96]
1.0989814 1.3175827 1.1484164 1.1173044 1.1919632 1.0760659 1.4047712 1.1138576
1.1371832 1.5525198 1.1503288 1.4873724 0.9669785 1.1472522 1.2002244 1.0978417
0.94299245 1.0593083 1.1535064 1.1115384 0.99383074 0.965099 1.1112506 0.919292
1.0822759 0.9992277 1.1667063 1.0747191 1.0201875 1.2431351 0.99013966 1.040881
1.3192381 1.2845168 1.0333962 1.1540736 1.2662177 1.2568158 1.0373485 1.0139163
1.2229493 1.272917 1.1866816 0.9647961 1.4208367 0.9430655 1.1524459 0.98674786
1.0107118 1.0340284 1.0189086 1.0009431 1.0361552 0.9521687 1.0758075 1.0288035
0.9060401 1.315851 1.0613445 1.0318477 0.97931373 1.1402639 1.0470668 1.1258622
1.1797336 1.1759212 1.0835999 1.1031986 0.9137152 1.1707321 1.1251502 1.3136646
1.4795237 1.2877855 1.2348512 1.196317 1.2154307 1.0970339 1.2753562 1.0417844
1.127191 1.2679558 1.117898 0.98440284 1.1933976 1.1740308 0.9079155 1.193777
1.6714431 1.3804046 1.2797662 1.0110822 1.1696981 1.2427902 0.9888877 1.0796028
00000000: 6cab 8c3f 8da6 a83f 4fff 923f d503 8f3f
00000010: 4092 983f 87bc 893f 8bcf b33f e392 8e3f
00000020: 388f 913f f8b8 c63f f93d 933f 3862 be3f
00000030: e78b 773f 29d9 923f f4a0 993f 1486 8c3f
00000040: f467 713f 6a97 873f 19a6 933f e446 8e3f
00000050: b16b 7e3f ba10 773f 763d 8e3f b856 6b3f
00000060: 0488 8a3f 63cd 7f3f a256 953f 6590 893f
00000070: 8195 823f 0d1f 9f3f cb79 7d3f 973b 853f
00000080: cbdc a83f 0c6b a43f 5446 843f afb8 933f
00000090: 6c13 a23f 57df a03f d6c7 843f 02c8 813f
000000a0: 9a89 9c3f f2ee a23f 2fe5 973f e1fc 763f
000000b0: fadd b53f be6c 713f 5983 933f 829b 7c3f
000000c0: 015f 813f 0b5b 843f 996b 823f e71e 803f
000000d0: bca0 843f 54c1 733f 0fb4 893f d5af 833f
000000e0: 3ef2 673f ce6d a83f 23da 873f 9613 843f
000000f0: 4eb4 7a3f 2bf4 913f 4906 863f 411c 903f
00000100: 8301 973f 9684 963f 67b3 8a3f 9d35 8d3f
00000110: 3de9 693f 8dda 953f ec04 903f 2926 a83f
00000120: 0861 bd3f 28d6 a43f 9b0f 9e3f ea20 993f
00000130: 3c93 9b3f 9b6b 8c3f df3e a33f 3159 853f
00000140: cb47 903f 604c a23f 4817 8f3f d301 7c3f
00000150: 41c1 983f a446 963f 266d 683f afcd 983f
00000160: d9f1 d53f 19b1 b03f 61cf a33f 246b 813f
00000170: abb8 953f c013 9f3f bf27 7d3f 6d30 8a3f

net.conv_block.channel_DW_conv.1.bias f4 [96]
-0.2717851 -0.5068576 -0.20437633 -0.16309625 -0.2539694 -0.11684522 -0.37864244 -0.21297227
-0.259215 -0.43663746 -0.30581877 -0.36162212 -0.12470358 -0.08497537 -0.30147132 -0.21687295
-0.13836199 -0.23924507 -0.2726272 -0.2356013 -0.14162593 -0.19324732 -0.29492626 -0.14789596
-0.218619 -0.2433642 -0.27369624 -0.20111321 -0.15234798 -0.33787617 -0.17048933 -0.30667487
-0.40442342 -0.34007037 -0.129986 -0.12143803 -0.3618568 -0.30627346 -0.08870059 -0.07853248
-0.2791991 -0.4086421 -0.24043763 -0.16770288 -0.48689374 -0.25045767 -0.24918368 -0.12573539
-0.28289282 -0.2155269 -0.18217397 -0.16323584 -0.23655684 -0.15064174 -0.17117672 -0.19429854
-0.17855757 -0.4400947 -0.19991721 -0.23568226 -0.191808 -0.24050549 -0.19752729 -0.34233037
-0.35074475 -0.19319315 -0.18620598 -0.32024983 -0.06558603 -0.27148613 -0.32684335 -0.26332012
-0.4140228 -0.3314143 -0.28205952 -0.23952235 -0.22677712 -0.18810968 -0.3358174 -0.102484465
-0.25194222 -0.24289165 -0.17265332 -0.07645474 -0.27359053 -0.21177146 -0.095908776 -0.24522732
-0.49328765 -0.36373234 -0.38822168 -0.27705476 -0.23291185 -0.26941675 -0.21714598 -0.3000273
00000000: 6b27 8bbe 6bc1 01bf 0748 51be b402 27be
00000010: 4708 82be 8c4c efbd 6cdd c1be 6715 5abe
00000020: d4b7 84be f28e dfbe 4794 9cbe 8926 b9be
00000030: 9764 ffbd 9107 aebd 735a 9abe f113 5ebe
00000040: c4ae 0dbe a9fc 74be cb95 8bbe 7841 71be
00000050: 6306 11be a0e2 45be 9300 97be 0a72 17be
00000060: a9dd 5fbe 7734 79be ea21 8cbe 9ff0 4dbe
00000070: 1c01 1cbe 1bfe acbe c194 2ebe 7d04 9dbe
00000080: 9610 cfbe b41d aebe 0d1b 05be 80b4 f8bd
00000090: 4b45 b9be e0cf 9cbe a8a8 b5bd a3d5 a0bd
000000a0: 2ff3 8ebe 8a39 d1be 4835 76be 4eba 2bbe
000000b0: 234a f9be fd3b 80be 022a 7fbe c7c0 00be
000000c0: 54d7 90be 15b3 5cbe d08b 3abe 4c27 27be
000000d0: f53b 72be d441 1abe f348 2fbe 32f6 46be
000000e0: ccd7 36be 1854 e1be 19b7 4cbe b156 71be
000000f0: 5169 44be 1247 76be 9844 4abe ed45 afbe
00000100: d194 b3be 6dd4 45be c8ac 3ebe c9f7 a3be
00000110: f851 86bd 3b00 8bbe 0358 a7be e5d1 86be
00000120: ccfa d3be 23af a9be 1b6a 90be 5945 75be
00000130: 4338 68be d39f 40be 42f0 abbe 60e3 d1bd
00000140: 92fe 80be 97b8 78be 08cc 30be 4d94 9cbd
00000150: 0f14 8cbe 9eda 58be d26b c4bd df1c 7bbe
00000160: 3390 fcbe 203b babe fec4 c6be 1fda 8dbe
00000170: 7280 6ebe fef0 89be 845b 5ebe 2e9d 99be

net.conv_block.channel_DW_conv.1.running_mean f4 [96]
-0.013600198 -0.0025709297 0.0030196146 0.006463048 -0.0007514978 0.00042626026 -0.0059007867 -0.009471001
-0.01056365 0.001152755 -0.003436132 -0.0042049866 0.023244862 0.0021552013 -0.0039137304 0.031409387
-0.04726987 0.0031069643 0.021108577 0.0031477103 -0.022155687 0.043729052 -0.018329611 -0.0060580354
0.020338155 -0.010076485 -0.009593778 -0.008843943 -0.0068458915 -0.0028258667 0.017108005 -0.03044128
-0.002056535 -0.0008940882 -0.049434718 0.036391623 0.00031891963 -0.0017083519 -0.018473145 0.015426289
0.01863347 -0.0059795864 -0.009935982 -0.007064569 0.0001822402 -0.0008088669 -0.0008645979 -0.0049948175
0.011350079 -0.00707778 0.004566479 0.0091368165 -0.007067257 -0.005085912 -0.007762705 0.022935176
0.01673643 0.012882749 -0.007715719 -0.0247104 0.029706793 0.021493606 -0.0062384447 0.0004224759
-0.030518817 0.0056578554 0.003125929 0.0032695609 -0.0003482468 0.003881972 -0.042864118 -0.021752648
-0.006939072 0.0020542792 0.0065168124 -0.02695817 0.0008567699 -0.013992586 0.0004344898 0.00856274
0.004385787 0.00391228 -0.09148869 0.0062323054 0.0017738756 0.0062151724 0.0013806366 0.02512874
0.0037041202 0.0050283126 -0.009827781 0.0081958445 -0.024864411 -0.006842172 -0.04802192 -0.06332409
00000000: 5dd3 5ebc 0b7d 28bb bae4 453b fac7 d33b
00000010: 2a00 45ba af7b df39 635b c1bb 422c 1bbc
00000020: 2913 2dbc 0a18 973a bb30 61bb fcc9 89bb
00000030: 026c be3c 473e 0d3b c03e 80bb 21a7 003d
00000040: 0d9e 41bd 369e 4b3b e5eb ac3c d149 4e3b
00000050: d87f b5bc 3c1d 333d fb27 96bc 7c82 c6bb
00000060: 349c a63c d717 25bc 392f 1dbc 2fe6 10bc
00000070: 8053 e0bb 2d32 39bb 1626 8c3c fe5f f9bc
00000080: efc6 06bb 3e61 6aba 0f7c 4abd 620f 153d
00000090: ab34 a739 c7ea dfba fe54 97bc 8cbe 7c3c
000000a0: 38a5 983c 68f0 c3bb 87ca 22bc e67d e7bb
000000b0: bb17 3f39 240a 54ba 2fa6 62ba 91ab a3bb
000000c0: aff5 393c b9ec e7bb 67a2 953b 96b2 153c
000000d0: 7394 e7bb b9a7 a6bb 4a5e febb 8de2 bb3c
000000e0: d61a 893c 2a12 533c 24d4 fcbb 776d cabc
000000f0: a95b f33c 5c13 b03c de6b ccbb c17f dd39
00000100: 9902 fabc 8865 b93b 63dc 4c3b 2146 563b
00000110: e594 b6b9 af68 7e3b 4992 2fbd 9c32 b2bc
00000120: 2861 e3bb 16a1 063b fc8a d53b 61d7 dcbc
00000130: db98 603a 2941 65bc 3ccc e339 bc4a 0c3c
00000140: a6b6 8f3b 9532 803b 6c5e bbbd 5e38 cc3b
00000150: 6381 e83a a5a8 cb3b 7af6 b43a cada cd3c
00000160: d3c0 723b 8bc4 a43b b304 21bc dd47 063c
00000170: 73b0 cbbc 4c34 e0bb a2b2 44bd 0fb0 81bd

net.conv_block.channel_DW_conv.1.running_var f4 [96]
0.39014652 0.029565169 0.12584053 0.058403514 0.2819285 0.32931727 0.20595142 0.10257165
0.43760273 0.12551859 0.07017485 0.22422512 0.3161795 0.042109095 0.13556945 0.25365663
0.27767888 0.32936928 0.4642407 0.12588134 0.27840444 0.45384604 0.22091457 0.65039176
0.5989972 0.2775078 0.14768656 0.5250583 0.31385663 0.029770829 0.039751902 1.1244717
0.2122767 0.24604948 0.2349772 0.29730725 0.050819933 0.25457087 0.5931277 0.12828912
0.3680491 0.107578926 0.0682482 0.2675949 0.13603139 0.5096951 0.2762235 0.60037094
0.54803586 0.14807764 0.19220287 0.2549475 0.05400803 0.21410497 0.36436918 0.1595687
0.31235123 0.2254693 0.11447541 0.13550602 0.068142086 0.050984323 0.3737211 0.05003843
1.3010902 0.13739488 0.07638964 0.14491242 0.15528855 0.06168776 0.5059123 0.10144205
0.3686531 0.514905 0.49901122 0.50780773 0.11749218 0.24820928 0.0751139 0.28408235
0.9458265 0.32385933 1.4722936 0.042165875 0.07033738 0.52335024 0.21775489 0.37552056
0.24046738 0.1883802 0.26541466 0.64112544 0.30363908 0.19113997 0.77838075 0.5735638
00000000: 49c1 c73e a732 f23c 57dc 003e 8638 6f3d
00000010: ef58 903e 469c a83e eee4 523e 1611 d23d
00000020: 770d e03e f287 003e d5b7 8f3d 459b 653e
00000030: 48e2 a13e 967a 2c3d b8d2 0a3e 48df 813e
00000040: ed2b 8e3e 17a3 a83e f5b0 ed3e 0ae7 003e
00000050: 078b 8e3e 825e e83e 6e37 623e 1380 263f
00000060: e157 193f 8115 8e3e 253b 173e 396a 063f
00000070: d1b1 a03e f4e1 f33c e4d2 223d b0ee 8f3f
00000080: 105f 593e 65f4 7b3e dd9d 703e a838 983e
00000090: 9028 503d 1d57 823e 38d7 173f 395e 033e
000000a0: ee70 bc3e 5752 dc3d b6c5 8b3d 3302 893e
000000b0: d04b 0b3e 617b 023f 2b6d 8d3e e9b1 193f
000000c0: 144c 0c3f aaa1 173e d4d0 443e 7b88 823e
000000d0: 8637 5d3d 553e 5b3e 998e ba3e fa65 233e
000000e0: 80ec 9f3e 6de1 663e 1572 ea3d 17c2 0a3e
000000f0: 148e 8b3d f0d4 503d 5f58 bf3e 19f5 4c3d
00000100: 208a a63f 3eb1 0c3e 2c72 9c3d ec63 143e
00000110: f603 1f3e 4eac 7c3d 7883 013f d9c0 cf3d
00000120: 19c0 bc3e d0d0 033f 667e ff3e b0ff 013f
00000130: bd9f f03d 932a 7e3e 51d5 993d 3e73 913e
00000140: af21 723f e4d0 a53e 1e74 bc3f 20b6 2c3d
00000150: 0b0d 903d 48fa 053f 23fb 5e3e 3b44 c03e
00000160: 153d 763e bde6 403e 6ee4 873e cc20 243f
00000170: 9576 9b3e 32ba 433e f643 473f 14d5 123f

net.conv_block.channel_reduction_2.0.weight f4 [48, 32, 1, 1]
-0.2309612 -0.08201537 -0.0079785995 -0.010545256 -0.06637555 0.056840792 0.0024212059 0.2816084
0.2616747 0.20767722 0.11158449 -0.012243139 -0.05016795 -0.16971196 0.17634264 -0.105764896
0.12810801 -0.027596127 -0.09016366 -0.090260014 0.043285076 -0.20173575 -0.0025494117 0.20933601
-0.13569018 0.0051144403 -0.3130898 0.036749907 -0.0417056 0.31452882 -0.11325915 -0.24568334
0.20410761 -0.08173614 0.07798192 -0.12749529 -0.10339859 0.030819098 0.09380562 0.03133085
0.20606011 -0.30751315 -0.24630587 0.14598852 -0.18585174 -0.2953076 0.19637387 0.00064880564
0.04094548 -0.055793818 -0.067847624 -0.07606025 -0.13462596 -0.0963623 -0.10315421 -0.05573447
0.07364385 -0.023519203 0.13138284 -0.07671235 0.040727373 0.18712093 -0.14269023 -0.013452584
-0.03950033 -0.13551983 0.22284178 -0.034783073 0.20390172 -0.20044415 -0.21459162 0.15396032
-0.019451011 0.40019926 -0.07059 -0.1608774 0.011531822 -0.069735184 -0.11418257 0.08143792
0.13213359 -0.1611277 -0.053401317 0.000633866 0.052462462 0.052530844 -0.036714945 0.0072064744
-0.007624101 0.1260074 -0.10913603 0.12809329 0.16408594 0.072978675 -0.12575617 0.11331529
-0.046850182 0.30130997 0.11214914 0.13715097 -0.07583146 0.16916762 -0.12297687 -0.16245864
-0.0928143 0.048299387 0.24904074 -0.15859725 0.0006128433 -0.00965587 -0.08051436 0.17066295
0.23574884 -0.16658902 -0.099496216 0.13799755 0.049278054 0.048589166 -0.20097646 0.051671218
0.14043827 -0.06458205 0.3013117 0.05533803 -0.08788072 -0.07335581 -0.1669213 -0.026135284
0.086176 -0.07777309 -0.13077758 -0.061567858 0.15806109 -0.20608789 -0.16633606 -0.18472521
0.049343202 0.17818582 0.025100546 -0.15924273 0.034012083 0.19670092 0.029903598 -0.027089579
-0.02390239 -0.12212919 0.31495136 -0.086240485 0.26116574 0.005329982 0.0438942 0.15949409
-0.045098286 0.14923097 0.04827714 -0.062653854 0.15704815 -0.10608858 0.15769485 -0.14113401
0.090577565 -0.12391288 -0.0078618 -0.00825813 -0.04514383 -0.060517218 -0.030580288 0.027848367
-0.32919294 -0.21741788 -0.09046642 -0.022217857 0.27499524 0.30913872 0.059589643 -0.11702036
0.018305285 -0.057026878 -0.05797542 0.008524879 0.32298952 -0.37592772 -0.054931324 -0.009353218
0.14832912 0.030826498 -0.08858091 -0.16747957 -0.0036930612 -0.0276599 -0.21971194 0.26920825
0.08218986 -0.068759255 -0.17963725 0.1931647 -0.21705192 0.09218688 0.107292145 -0.020687517
0.08471242 0.3608792 0.09624498 0.11952027 0.017637717 0.09355094 -0.18895997 0.10746158
-0.053586423 -0.08748958 0.04729298 -0.14824599 0.107822776 -0.041431677 -0.05022645 -0.11705717
0.12207809 -0.07532687 0.06284635 -0.07249091 -0.110593915 0.2981345 -0.15073158 0.09479544
0.24872488 -0.06287354 -0.1610219 0.025904497 -0.09635039 0.11018098 -0.12227906 0.379447
-0.24259935 -0.036930114 0.041604247 -0.13458948 -0.1318894 -0.08205027 -0.058427308 0.036009587
-0.15192318 -0.097977236 -0.1175142 0.0425507 -0.1286771 0.16098922 0.16759776 -0.022249488
0.13886295 0.10939903 0.24229677 -0.08573625 0.10227487 0.043924876 -0.14067714 0.15240182
00000000: 1881 6cbe adf7 a7bd acb8 02bc 02c6 2cbc
00000010: e8ef 87bd e4d1 683d 18ad 1e3b fa2e 903e
00000020: 3afa 853e 56a9 543e 6986 e43d 7297 48bc
00000030: e97c 4dbd f9c8 2dbe 2a93 343e 449b d8bd
00000040: bf2e 033e 4611 e2bc baa7 b8bd 3eda b8bd
00000050: b14b 313d d193 4ebe 0814 27bb 2e5c 563e
00000060: 5ef2 0abe 0997 a73b 4e4d a0be 1287 163d
00000070: 7ed3 2abd ec09 a13e 6af4 e7bd 6a94 7bbe
00000080: 9601 513e 4765 a7bd fcb4 9f3d 208e 02be
00000090: a4c2 d3bd 5578 fc3c 291d c03d c754 003d
000000a0: 6c01 533e 5d72 9dbe 9b37 7cbe 047e 153e
000000b0: eb4f 3ebe 8f32 97be 3b16 493e 9c14 2a3a
000000c0: 73b6 273d 0f88 64bd b2f3 8abd 7ac5 9bbd
000000d0: 63db 09be 9959 c5bd 8442 d3bd d449 64bd
000000e0: 96d2 963d 58ab c0bc 3989 063e 5d1b 9dbd
000000f0: bfd1 263d a19c 3f3e 631d 12be 3a68 5cbc
00000100: 19cb 21bd b6c5 0abe a330 643e b278 0ebd
00000110: 9dcb 503e 3b41 4dbe e8bd 5bbe c6a7 1d3e
00000120: ba57 9fbc ebe6 cc3e 7d91 90bd 0cbd 24be
00000130: f8ef 3c3c 52d1 8ebd 8dd8 e9bd edc8 a63d
00000140: 074e 073e a9fe 24be 57bb 5abd 072a 263a
00000150: e1e2 563d 952a 573d 6962 16bd 4a24 ec3b
00000160: 98d3 f9bb 1508 013e b682 dfbd e32a 033e
00000170: 2506 283e d875 953d 3ac6 00be d911 e83d
00000180: fae5 3fbd 4d45 9a3e 73ae e53d 4e71 0c3e
00000190: 864d 9bbd 473a 2d3e 4cdb fbbd 8f5b 26be
000001a0: 6c15 bebd 94d5 453d 8904 7f3e 5167 22be
000001b0: 38a7 203a a733 1ebc b6e4 a4bd 45c2 2e3e
000001c0: 2568 713e 5096 2abe acc4 cbbd 3b4f 0d3e
000001d0: c9d7 493d 6f05 473d c6cc 4dbe 33a5 533d
000001e0: 0dcf 0f3e 9843 84bd 8745 9a3e 21aa 623d
000001f0: cffa b3bd 923b 96bd 6bed 2abe aa19 d6bc
00000200: 0b7d b03d 7f47 9fbd 8fea 05be 942e 7cbd
00000210: c4da 213e b408 53be 0054 2abe 9b28 3dbe
00000220: 191c 4a3d 5876 363e a99f cd3c 8710 23be
00000230: 4150 0b3d f76b 493e 64f8 f43c f7ea ddbc
00000240: f2ce c3bc de1e fabd 4e41 a13e da9e b0bd
00000250: 84b7 853e 21a7 ae3b 68ca 333d 6b52 233e
00000260: fbb8 38bd 01d0 183e 40be 453d aa50 80bd
00000270: 3bd1 203e f844 d9bd c27a 213e 6f85 10be
00000280: bb80 b93d 09c6 fdbd c7ce 00bc 1c4d 07bc
00000290: bde8 38bd e7e0 77bd 8383 fabc 4222 e43c
000002a0: fa8b a8be cba2 5ebe 7546 b9bd 3902 b6bc
000002b0: 2dcc 8c3e 6e47 9e3e 4514 743d 5fa8 efbd
000002c0: f7f4 953c 0495 69bd a277 6dbd efab 0b3c
000002d0: e25e a53e 9979 c0be abff 60bd 3d3e 19bc
000002e0: 97e3 173e da87 fc3c e869 b5bd c47f 2bbe
000002f0: 4907 72bb 0497 e2bc 2bfc 60be aad5 893e
00000300: 2853 a83d a7d1 8cbd d4f2 37be f8cc 453e
00000310: dc42 5ebe 7acc bc3d fcbb db3d de78 a9bc
00000320: b57d ad3d 29c5 b83e 171c c53d 0bc7 f43d
00000330: f97c 903c a397 bf3d b97e 41be d114 dc3d
00000340: 707d 5bbd bd2d b3bd 49b6 413d cccd 17be
00000350: 30d2 dc3d 43b4 29bd 40ba 4dbd abbb efbd
00000360: 1404 fa3d f944 9abd 96b5 803d 1d76 94bd
00000370: 107f e2bd 16a5 983e 6159 1abe 1d24 c23d
00000380: bcb1 7e3e d8c3 80bd ede2 24be ab35 d43c
00000390: 5a53 c5bd 91a6 e13d 726d fabd e146 c23e
000003a0: f76b 78be 0844 17bd 3769 2a3d d3d1 09be
000003b0: 040e 07be f909 a8bd 7951 6fbd ca7e 133d
000003c0: c091 1bbe 4aa8 c8bd 49ab f0bd a549 2e3d
000003d0: eec3 03be 5cda 243e bf9e 2b3e 8f44 b6bc
000003e0: 1732 0e3e 990c e03d a51c 783e 7d96 afbd
000003f0: 7d75 d13d 92ea 333d ab0d 10be 390f 1c3e

net.conv_block.channel_reduction_2.1.weight f4 [48]
1.0419556 1.0089141 1.0576373 1.054353 1.0163691 1.137609 0.925635 1.042856
1.132929 1.0754768 1.0719796 0.9039001 0.91585565 1.0307723 0.8574569 0.89623195
0.9628541 1.089418 0.9312411 0.9919952 1.0508087 1.02149 1.035859 0.9806788
0.8482786 0.88742465 1.0838791 1.0297481 1.0153612 1.0813807 1.1010146 0.9400414
0.9026295 1.1183366 0.89789593 0.86313844 1.0796033 1.2163928 0.9978107 1.0202764
1.0814959 0.90819067 0.9121702 1.120585 1.0204047 1.0151275 0.9338628 0.95785064
00000000: cd5e 853f 1924 813f a960 873f 0af5 863f
00000010: 6218 823f 2c9d 913f 6af6 6c3f 4e7c 853f
00000020: d103 913f 39a9 893f a136 893f ff65 673f
00000030: 8475 6a3f 59f0 833f 4c82 5b3f 756f 653f
00000040: 9b7d 763f 0d72 8b3f d165 6e3f 66f3 7d3f
00000050: e680 863f 2fc0 823f 0797 843f c40d 7b3f
00000060: c928 593f 432e 633f 8dbc 8a3f c9ce 833f
00000070: 5bf7 813f af6a 8a3f 0cee 8c3f 8ea6 703f
00000080: ba12 673f a725 8f3f 82dc 653f a4f6 5c3f
00000090: 7130 8a3f c2b2 9b3f 8670 7f3f 6b98 823f
000000a0: 756e 8a3f 2f7f 683f fc83 693f 546f 8f3f
000000b0: 9f9c 823f b3ef 813f a211 6f3f b335 753f

net.conv_block.channel_reduction_2.1.bias f4 [48]
-0.07441689 -0.24351917 -0.34828904 0.083367094 -0.11365799 -0.16861868 -0.10714075 0.2786428
0.14199822 0.008450366 0.09256976 0.11012281 -0.020484624 0.04447265 -0.0034573493 -0.06699992
0.22179373 -0.51818216 -0.13763453 0.32274804 0.26448873 -0.2458679 -0.20836104 -0.50704455
0.03846588 -0.2390565 -0.249514 0.22608173 0.622988 0.08965694 -0.2853255 -0.25685593
0.20457537 -0.21641392 -0.17091869 0.35259637 0.45192218 -0.12679559 0.17338072 0.5360404
0.29163226 0.103217684 0.20292473 0.112942524 0.35096437 0.18426152 0.2710073 0.41014326
00000000: e267 98bd 175d 79be f152 b2be 5ebc aa3d
00000010: 85c5 e8bd 60aa 2cbe 9c6c dbbd 45aa 8e3e
00000020: fb67 113e 6773 0a3c 3795 bd3d 1188 e13d
00000030: 5fcf a7bc f428 363d b294 62bb 4137 89bd
00000040: e51d 633e 96a7 04bf 11f0 0cbe 3b3f a53e
00000050: 116b 873e cbc4 7bbe 995c 55be accd 01bf
00000060: 668e 1d3d 3acb 74be 9980 7fbe f881 673e
00000070: 247c 1f3f 0f9e b73d 2f16 92be 9f82 83be
00000080: 357c 513e 9c9b 5dbe 4f05 2fbe 8387 b43e
00000090: 5862 e73e b4d6 01be b78a 313e f239 093f
000000a0: d350 953e cb63 d33d 80cb 4f3e 694e e73d
000000b0: 9ab1 b33e 0daf 3c3e 78c1 8a3e 4cfe d13e

net.conv_block.channel_reduction_2.1.running_mean f4 [48]
0.01630802 -0.03911122 0.018216021 0.004165223 0.026629828 0.044677027 0.022007419 -0.03428359
-0.07415069 -0.0027498454 0.010028075 -0.0008219026 -0.022403127 -0.03015426 -0.08578297 0.06008781
-0.016228387 0.034352634 -0.11286161 -0.03183819 0.0136439325 -0.0934784 -0.08269841 -0.030029261
0.007559786 -0.04017538 0.05688999 -0.008858556 0.0015246152 -0.034216102 -0.028170018 0.03734802
-0.018268514 -0.0014664154 -0.034315594 0.026258502 -0.012243625 -0.019572107 0.020250974 0.036861654
0.02029489 0.0029875466 0.012819894 0.016181288 0.0036689064 -0.013220968 0.05077014 0.0031229588
00000000: 6698 853c 1633 20bd c439 953c 6c7c 883b
00000010: cc26 da3c 42ff 363d e748 b43c f36c 0cbd
00000020: 51dc 97bd c036 34bb cc4c 243c f374 57ba
00000030: c386 b7bc 1106 f7bc fbae afbd a31e 763d
00000040: 65f1 84bc 59b5 0c3d fd23 e7bd c368 02bd
00000050: cd8a 5f3c 9a71 bfbd c95d a9bd edff f5bc
00000060: 15b8 f73b f08e 24bd 7a05 693d 7a23 11bc
00000070: 99d5 c73a 2f26 0cbd cfc4 e6bc 3dfa 183d
00000080: daa7 95bc bc34 c0ba 828e 0cbd 121c d73c
00000090: 7c99 48bc af55 a0bc 5fe5 a53c 3ffc 163d
000000a0: 7841 a63c b7ca 433b 880a 523c 9f8e 843c
000000b0: 0972 703b c29c 58bc 5af4 4f3d 8eaa 4c3b

net.conv_block.channel_reduction_2.1.running_var f4 [48]
0.5131006 0.43872166 0.4232144 0.53431714 0.55560344 0.8367006 0.42469782 0.54714435
0.43313926 0.4197541 0.4361424 0.4053544 0.50327134 0.43822303 0.40667215 0.48100346
0.42669845 0.47968727 0.33522758 0.5536843 0.5719845 0.45977882 0.71024466 0.4134104
0.31859592 0.3181126 0.54802203 0.32856363 0.36334795 0.40348557 0.4995455 0.41446668
0.42818403 0.52195746 0.4406696 0.47071728 0.36976498 0.4962214 0.38377315 0.41872057
0.37873504 0.36077657 0.62190723 0.6795201 0.4704721 0.38414007 0.32881257 0.41580892
00000000: 905a 033f 20a0 e03e 8faf d83e 02c9 083f
00000010: 073c 0e3f 0332 563f fe71 d93e a711 0c3f
00000020: 6ec4 dd3e 02ea d63e 0f4e df3e 9d8a cf3e
00000030: 64d6 003f c55e e03e 5537 d03e 1646 f63e
00000040: 3878 da3e 9299 f53e f3a2 ab3e 41be 0d3f
00000050: 946d 123f 2168 eb3e 98d2 353f 87aa d33e
00000060: 011f a33e a8df a23e 2c4b 0c3f 7e39 a83e
00000070: be08 ba3e a995 ce3e 6ec4 ff3e fa34 d43e
00000080: f03a db3e 019f 053f 729f e13e db01 f13e
00000090: d651 bd3e bb10 fe3e ea7d c43e 8b62 d63e
000000a0: 8fe9 c13e b5b7 b83e 5035 1f3f 07f5 2d3f
000000b0: b8e1 f03e 02ae c43e 1f5a a83e e8e4 d43e
